Found 20028 word vectors.
_________________________________________________________________
Layer (type)                 Output Shape              Param #   
=================================================================
embedding_1 (Embedding)      (None, 150, 300)          527700    
_________________________________________________________________
bidirectional_1 (Bidirection (None, 150, 256)          439296    
_________________________________________________________________
dropout_1 (Dropout)          (None, 150, 256)          0         
_________________________________________________________________
bidirectional_2 (Bidirection (None, 150, 128)          164352    
_________________________________________________________________
dropout_2 (Dropout)          (None, 150, 128)          0         
_________________________________________________________________
time_distributed_1 (TimeDist (None, 150, 11)           1419      
_________________________________________________________________
crf_1 (CRF)                  (None, 150, 11)           275       
=================================================================
Total params: 1,133,042
Trainable params: 605,342
Non-trainable params: 527,700
_________________________________________________________________
命名实体识别
O非实体部分,TREATMENT治疗方式, BODY身体部位, SIGN疾病症状, CHECK医学检查, DISEASE疾病实体
[('他', 'O'), ('最', 'O'), ('近', 'O'), ('头', 'SIGNS-B'), ('痛', 'SIGNS-I'), (',', 'O'), ('流', 'SIGNS-B'), ('鼻', 'SIGNS-B'), ('涕', 'SIGNS-I'), (',', 'O'), ('估', 'O'), ('计', 'O'), ('是', 'O'), ('发', 'SIGNS-B'), ('烧', 'SIGNS-I'), ('了', 'O')]
…
